{"backend": "tensorflow", "keras_version": "2.2.4", "config": {"input_layers": [["data", 0, 0]], "name": "u-resnet34", "layers": [{"name": "data", "inbound_nodes": [], "config": {"name": "data", "sparse": false, "batch_input_shape": [null, 288, 288, 3], "dtype": "float32"}, "class_name": "InputLayer"}, {"name": "bn_data", "inbound_nodes": [[["data", 0, 0, {}]]], "config": {"name": "bn_data", "moving_mean_initializer": {"config": {}, "class_name": "Zeros"}, "center": true, "axis": 3, "trainable": true, "gamma_initializer": {"config": {}, "class_name": "Ones"}, "gamma_constraint": null, "gamma_regularizer": null, "scale": false, "moving_variance_initializer": {"config": {}, "class_name": "Ones"}, "epsilon": 2e-05, "beta_initializer": {"config": {}, "class_name": "Zeros"}, "beta_regularizer": null, "momentum": 0.99, "beta_constraint": null}, "class_name": "BatchNormalization"}, {"name": "zero_padding2d_1", "inbound_nodes": [[["bn_data", 0, 0, {}]]], "config": {"padding": [[3, 3], [3, 3]], "data_format": "channels_last", "name": "zero_padding2d_1", "trainable": true}, "class_name": "ZeroPadding2D"}, {"name": "conv0", "inbound_nodes": [[["zero_padding2d_1", 0, 0, {}]]], "config": {"name": "conv0", "activity_regularizer": null, "dilation_rate": [1, 1], "kernel_regularizer": null, "use_bias": false, "data_format": "channels_last", "trainable": true, "kernel_size": [7, 7], "filters": 64, "kernel_constraint": null, "bias_constraint": null, "strides": [2, 2], "kernel_initializer": {"config": {"distribution": "uniform", "seed": null, "scale": 2.0, "mode": "fan_in"}, "class_name": "VarianceScaling"}, "bias_initializer": {"config": {}, "class_name": "Zeros"}, "bias_regularizer": null, "padding": "valid", "activation": "linear"}, "class_name": "Conv2D"}, {"name": "bn0", "inbound_nodes": [[["conv0", 0, 0, {}]]], "config": {"name": "bn0", "moving_mean_initializer": {"config": {}, "class_name": "Zeros"}, "center": true, "axis": 3, "trainable": true, "gamma_initializer": {"config": {}, "class_name": "Ones"}, "gamma_constraint": null, "gamma_regularizer": null, "scale": true, "moving_variance_initializer": {"config": {}, "class_name": "Ones"}, "epsilon": 2e-05, "beta_initializer": {"config": {}, "class_name": "Zeros"}, "beta_regularizer": null, "momentum": 0.99, "beta_constraint": null}, "class_name": "BatchNormalization"}, {"name": "relu0", "inbound_nodes": [[["bn0", 0, 0, {}]]], "config": {"name": "relu0", "trainable": true, "activation": "relu"}, "class_name": "Activation"}, {"name": "zero_padding2d_2", "inbound_nodes": [[["relu0", 0, 0, {}]]], "config": {"padding": [[1, 1], [1, 1]], "data_format": "channels_last", "name": "zero_padding2d_2", "trainable": true}, "class_name": "ZeroPadding2D"}, {"name": "pooling0", "inbound_nodes": [[["zero_padding2d_2", 0, 0, {}]]], "config": {"name": "pooling0", "pool_size": [3, 3], "strides": [2, 2], "padding": "valid", "data_format": "channels_last", "trainable": true}, "class_name": "MaxPooling2D"}, {"name": "stage1_unit1_bn1", "inbound_nodes": [[["pooling0", 0, 0, {}]]], "config": {"name": "stage1_unit1_bn1", "moving_mean_initializer": {"config": {}, "class_name": "Zeros"}, "center": true, "axis": 3, "trainable": true, "gamma_initializer": {"config": {}, "class_name": "Ones"}, "gamma_constraint": null, "gamma_regularizer": null, "scale": true, "moving_variance_initializer": {"config": {}, "class_name": "Ones"}, "epsilon": 2e-05, "beta_initializer": {"config": {}, "class_name": "Zeros"}, "beta_regularizer": null, "momentum": 0.99, "beta_constraint": null}, "class_name": "BatchNormalization"}, {"name": "stage1_unit1_relu1", "inbound_nodes": [[["stage1_unit1_bn1", 0, 0, {}]]], "config": {"name": "stage1_unit1_relu1", "trainable": true, "activation": "relu"}, "class_name": "Activation"}, {"name": "zero_padding2d_3", "inbound_nodes": [[["stage1_unit1_relu1", 0, 0, {}]]], "config": {"padding": [[1, 1], [1, 1]], "data_format": "channels_last", "name": "zero_padding2d_3", "trainable": true}, "class_name": "ZeroPadding2D"}, {"name": "stage1_unit1_conv1", "inbound_nodes": [[["zero_padding2d_3", 0, 0, {}]]], "config": {"name": "stage1_unit1_conv1", "activity_regularizer": null, "dilation_rate": [1, 1], "kernel_regularizer": null, "use_bias": false, "data_format": "channels_last", "trainable": true, "kernel_size": [3, 3], "filters": 64, "kernel_constraint": null, "bias_constraint": null, "strides": [1, 1], "kernel_initializer": {"config": {"distribution": "uniform", "seed": null, "scale": 2.0, "mode": "fan_in"}, "class_name": "VarianceScaling"}, "bias_initializer": {"config": {}, "class_name": "Zeros"}, "bias_regularizer": null, "padding": "valid", "activation": "linear"}, "class_name": "Conv2D"}, {"name": "stage1_unit1_bn2", "inbound_nodes": [[["stage1_unit1_conv1", 0, 0, {}]]], "config": {"name": "stage1_unit1_bn2", "moving_mean_initializer": {"config": {}, "class_name": "Zeros"}, "center": true, "axis": 3, "trainable": true, "gamma_initializer": {"config": {}, "class_name": "Ones"}, "gamma_constraint": null, "gamma_regularizer": null, "scale": true, "moving_variance_initializer": {"config": {}, "class_name": "Ones"}, "epsilon": 2e-05, "beta_initializer": {"config": {}, "class_name": "Zeros"}, "beta_regularizer": null, "momentum": 0.99, "beta_constraint": null}, "class_name": "BatchNormalization"}, {"name": "stage1_unit1_relu2", "inbound_nodes": [[["stage1_unit1_bn2", 0, 0, {}]]], "config": {"name": "stage1_unit1_relu2", "trainable": true, "activation": "relu"}, "class_name": "Activation"}, {"name": "zero_padding2d_4", "inbound_nodes": [[["stage1_unit1_relu2", 0, 0, {}]]], "config": {"padding": [[1, 1], [1, 1]], "data_format": "channels_last", "name": "zero_padding2d_4", "trainable": true}, "class_name": "ZeroPadding2D"}, {"name": "stage1_unit1_conv2", "inbound_nodes": [[["zero_padding2d_4", 0, 0, {}]]], "config": {"name": "stage1_unit1_conv2", "activity_regularizer": null, "dilation_rate": [1, 1], "kernel_regularizer": null, "use_bias": false, "data_format": "channels_last", "trainable": true, "kernel_size": [3, 3], "filters": 64, "kernel_constraint": null, "bias_constraint": null, "strides": [1, 1], "kernel_initializer": {"config": {"distribution": "uniform", "seed": null, "scale": 2.0, "mode": "fan_in"}, "class_name": "VarianceScaling"}, "bias_initializer": {"config": {}, "class_name": "Zeros"}, "bias_regularizer": null, "padding": "valid", "activation": "linear"}, "class_name": "Conv2D"}, {"name": "stage1_unit1_sc", "inbound_nodes": [[["stage1_unit1_relu1", 0, 0, {}]]], "config": {"name": "stage1_unit1_sc", "activity_regularizer": null, "dilation_rate": [1, 1], "kernel_regularizer": null, "use_bias": false, "data_format": "channels_last", "trainable": true, "kernel_size": [1, 1], "filters": 64, "kernel_constraint": null, "bias_constraint": null, "strides": [1, 1], "kernel_initializer": {"config": {"distribution": "uniform", "seed": null, "scale": 2.0, "mode": "fan_in"}, "class_name": "VarianceScaling"}, "bias_initializer": {"config": {}, "class_name": "Zeros"}, "bias_regularizer": null, "padding": "valid", "activation": "linear"}, "class_name": "Conv2D"}, {"name": "add_1", "inbound_nodes": [[["stage1_unit1_conv2", 0, 0, {}], ["stage1_unit1_sc", 0, 0, {}]]], "config": {"name": "add_1", "trainable": true}, "class_name": "Add"}, {"name": "stage1_unit2_bn1", "inbound_nodes": [[["add_1", 0, 0, {}]]], "config": {"name": "stage1_unit2_bn1", "moving_mean_initializer": {"config": {}, "class_name": "Zeros"}, "center": true, "axis": 3, "trainable": true, "gamma_initializer": {"config": {}, "class_name": "Ones"}, "gamma_constraint": null, "gamma_regularizer": null, "scale": true, "moving_variance_initializer": {"config": {}, "class_name": "Ones"}, "epsilon": 2e-05, "beta_initializer": {"config": {}, "class_name": "Zeros"}, "beta_regularizer": null, "momentum": 0.99, "beta_constraint": null}, "class_name": "BatchNormalization"}, {"name": "stage1_unit2_relu1", "inbound_nodes": [[["stage1_unit2_bn1", 0, 0, {}]]], "config": {"name": "stage1_unit2_relu1", "trainable": true, "activation": "relu"}, "class_name": "Activation"}, {"name": "zero_padding2d_5", "inbound_nodes": [[["stage1_unit2_relu1", 0, 0, {}]]], "config": {"padding": [[1, 1], [1, 1]], "data_format": "channels_last", "name": "zero_padding2d_5", "trainable": true}, "class_name": "ZeroPadding2D"}, {"name": "stage1_unit2_conv1", "inbound_nodes": [[["zero_padding2d_5", 0, 0, {}]]], "config": {"name": "stage1_unit2_conv1", "activity_regularizer": null, "dilation_rate": [1, 1], "kernel_regularizer": null, "use_bias": false, "data_format": "channels_last", "trainable": true, "kernel_size": [3, 3], "filters": 64, "kernel_constraint": null, "bias_constraint": null, "strides": [1, 1], "kernel_initializer": {"config": {"distribution": "uniform", "seed": null, "scale": 2.0, "mode": "fan_in"}, "class_name": "VarianceScaling"}, "bias_initializer": {"config": {}, "class_name": "Zeros"}, "bias_regularizer": null, "padding": "valid", "activation": "linear"}, "class_name": "Conv2D"}, {"name": "stage1_unit2_bn2", "inbound_nodes": [[["stage1_unit2_conv1", 0, 0, {}]]], "config": {"name": "stage1_unit2_bn2", "moving_mean_initializer": {"config": {}, "class_name": "Zeros"}, "center": true, "axis": 3, "trainable": true, "gamma_initializer": {"config": {}, "class_name": "Ones"}, "gamma_constraint": null, "gamma_regularizer": null, "scale": true, "moving_variance_initializer": {"config": {}, "class_name": "Ones"}, "epsilon": 2e-05, "beta_initializer": {"config": {}, "class_name": "Zeros"}, "beta_regularizer": null, "momentum": 0.99, "beta_constraint": null}, "class_name": "BatchNormalization"}, {"name": "stage1_unit2_relu2", "inbound_nodes": [[["stage1_unit2_bn2", 0, 0, {}]]], "config": {"name": "stage1_unit2_relu2", "trainable": true, "activation": "relu"}, "class_name": "Activation"}, {"name": "zero_padding2d_6", "inbound_nodes": [[["stage1_unit2_relu2", 0, 0, {}]]], "config": {"padding": [[1, 1], [1, 1]], "data_format": "channels_last", "name": "zero_padding2d_6", "trainable": true}, "class_name": "ZeroPadding2D"}, {"name": "stage1_unit2_conv2", "inbound_nodes": [[["zero_padding2d_6", 0, 0, {}]]], "config": {"name": "stage1_unit2_conv2", "activity_regularizer": null, "dilation_rate": [1, 1], "kernel_regularizer": null, "use_bias": false, "data_format": "channels_last", "trainable": true, "kernel_size": [3, 3], "filters": 64, "kernel_constraint": null, "bias_constraint": null, "strides": [1, 1], "kernel_initializer": {"config": {"distribution": "uniform", "seed": null, "scale": 2.0, "mode": "fan_in"}, "class_name": "VarianceScaling"}, "bias_initializer": {"config": {}, "class_name": "Zeros"}, "bias_regularizer": null, "padding": "valid", "activation": "linear"}, "class_name": "Conv2D"}, {"name": "add_2", "inbound_nodes": [[["stage1_unit2_conv2", 0, 0, {}], ["add_1", 0, 0, {}]]], "config": {"name": "add_2", "trainable": true}, "class_name": "Add"}, {"name": "stage1_unit3_bn1", "inbound_nodes": [[["add_2", 0, 0, {}]]], "config": {"name": "stage1_unit3_bn1", "moving_mean_initializer": {"config": {}, "class_name": "Zeros"}, "center": true, "axis": 3, "trainable": true, "gamma_initializer": {"config": {}, "class_name": "Ones"}, "gamma_constraint": null, "gamma_regularizer": null, "scale": true, "moving_variance_initializer": {"config": {}, "class_name": "Ones"}, "epsilon": 2e-05, "beta_initializer": {"config": {}, "class_name": "Zeros"}, "beta_regularizer": null, "momentum": 0.99, "beta_constraint": null}, "class_name": "BatchNormalization"}, {"name": "stage1_unit3_relu1", "inbound_nodes": [[["stage1_unit3_bn1", 0, 0, {}]]], "config": {"name": "stage1_unit3_relu1", "trainable": true, "activation": "relu"}, "class_name": "Activation"}, {"name": "zero_padding2d_7", "inbound_nodes": [[["stage1_unit3_relu1", 0, 0, {}]]], "config": {"padding": [[1, 1], [1, 1]], "data_format": "channels_last", "name": "zero_padding2d_7", "trainable": true}, "class_name": "ZeroPadding2D"}, {"name": "stage1_unit3_conv1", "inbound_nodes": [[["zero_padding2d_7", 0, 0, {}]]], "config": {"name": "stage1_unit3_conv1", "activity_regularizer": null, "dilation_rate": [1, 1], "kernel_regularizer": null, "use_bias": false, "data_format": "channels_last", "trainable": true, "kernel_size": [3, 3], "filters": 64, "kernel_constraint": null, "bias_constraint": null, "strides": [1, 1], "kernel_initializer": {"config": {"distribution": "uniform", "seed": null, "scale": 2.0, "mode": "fan_in"}, "class_name": "VarianceScaling"}, "bias_initializer": {"config": {}, "class_name": "Zeros"}, "bias_regularizer": null, "padding": "valid", "activation": "linear"}, "class_name": "Conv2D"}, {"name": "stage1_unit3_bn2", "inbound_nodes": [[["stage1_unit3_conv1", 0, 0, {}]]], "config": {"name": "stage1_unit3_bn2", "moving_mean_initializer": {"config": {}, "class_name": "Zeros"}, "center": true, "axis": 3, "trainable": true, "gamma_initializer": {"config": {}, "class_name": "Ones"}, "gamma_constraint": null, "gamma_regularizer": null, "scale": true, "moving_variance_initializer": {"config": {}, "class_name": "Ones"}, "epsilon": 2e-05, "beta_initializer": {"config": {}, "class_name": "Zeros"}, "beta_regularizer": null, "momentum": 0.99, "beta_constraint": null}, "class_name": "BatchNormalization"}, {"name": "stage1_unit3_relu2", "inbound_nodes": [[["stage1_unit3_bn2", 0, 0, {}]]], "config": {"name": "stage1_unit3_relu2", "trainable": true, "activation": "relu"}, "class_name": "Activation"}, {"name": "zero_padding2d_8", "inbound_nodes": [[["stage1_unit3_relu2", 0, 0, {}]]], "config": {"padding": [[1, 1], [1, 1]], "data_format": "channels_last", "name": "zero_padding2d_8", "trainable": true}, "class_name": "ZeroPadding2D"}, {"name": "stage1_unit3_conv2", "inbound_nodes": [[["zero_padding2d_8", 0, 0, {}]]], "config": {"name": "stage1_unit3_conv2", "activity_regularizer": null, "dilation_rate": [1, 1], "kernel_regularizer": null, "use_bias": false, "data_format": "channels_last", "trainable": true, "kernel_size": [3, 3], "filters": 64, "kernel_constraint": null, "bias_constraint": null, "strides": [1, 1], "kernel_initializer": {"config": {"distribution": "uniform", "seed": null, "scale": 2.0, "mode": "fan_in"}, "class_name": "VarianceScaling"}, "bias_initializer": {"config": {}, "class_name": "Zeros"}, "bias_regularizer": null, "padding": "valid", "activation": "linear"}, "class_name": "Conv2D"}, {"name": "add_3", "inbound_nodes": [[["stage1_unit3_conv2", 0, 0, {}], ["add_2", 0, 0, {}]]], "config": {"name": "add_3", "trainable": true}, "class_name": "Add"}, {"name": "stage2_unit1_bn1", "inbound_nodes": [[["add_3", 0, 0, {}]]], "config": {"name": "stage2_unit1_bn1", "moving_mean_initializer": {"config": {}, "class_name": "Zeros"}, "center": true, "axis": 3, "trainable": true, "gamma_initializer": {"config": {}, "class_name": "Ones"}, "gamma_constraint": null, "gamma_regularizer": null, "scale": true, "moving_variance_initializer": {"config": {}, "class_name": "Ones"}, "epsilon": 2e-05, "beta_initializer": {"config": {}, "class_name": "Zeros"}, "beta_regularizer": null, "momentum": 0.99, "beta_constraint": null}, "class_name": "BatchNormalization"}, {"name": "stage2_unit1_relu1", "inbound_nodes": [[["stage2_unit1_bn1", 0, 0, {}]]], "config": {"name": "stage2_unit1_relu1", "trainable": true, "activation": "relu"}, "class_name": "Activation"}, {"name": "zero_padding2d_9", "inbound_nodes": [[["stage2_unit1_relu1", 0, 0, {}]]], "config": {"padding": [[1, 1], [1, 1]], "data_format": "channels_last", "name": "zero_padding2d_9", "trainable": true}, "class_name": "ZeroPadding2D"}, {"name": "stage2_unit1_conv1", "inbound_nodes": [[["zero_padding2d_9", 0, 0, {}]]], "config": {"name": "stage2_unit1_conv1", "activity_regularizer": null, "dilation_rate": [1, 1], "kernel_regularizer": null, "use_bias": false, "data_format": "channels_last", "trainable": true, "kernel_size": [3, 3], "filters": 128, "kernel_constraint": null, "bias_constraint": null, "strides": [2, 2], "kernel_initializer": {"config": {"distribution": "uniform", "seed": null, "scale": 2.0, "mode": "fan_in"}, "class_name": "VarianceScaling"}, "bias_initializer": {"config": {}, "class_name": "Zeros"}, "bias_regularizer": null, "padding": "valid", "activation": "linear"}, "class_name": "Conv2D"}, {"name": "stage2_unit1_bn2", "inbound_nodes": [[["stage2_unit1_conv1", 0, 0, {}]]], "config": {"name": "stage2_unit1_bn2", "moving_mean_initializer": {"config": {}, "class_name": "Zeros"}, "center": true, "axis": 3, "trainable": true, "gamma_initializer": {"config": {}, "class_name": "Ones"}, "gamma_constraint": null, "gamma_regularizer": null, "scale": true, "moving_variance_initializer": {"config": {}, "class_name": "Ones"}, "epsilon": 2e-05, "beta_initializer": {"config": {}, "class_name": "Zeros"}, "beta_regularizer": null, "momentum": 0.99, "beta_constraint": null}, "class_name": "BatchNormalization"}, {"name": "stage2_unit1_relu2", "inbound_nodes": [[["stage2_unit1_bn2", 0, 0, {}]]], "config": {"name": "stage2_unit1_relu2", "trainable": true, "activation": "relu"}, "class_name": "Activation"}, {"name": "zero_padding2d_10", "inbound_nodes": [[["stage2_unit1_relu2", 0, 0, {}]]], "config": {"padding": [[1, 1], [1, 1]], "data_format": "channels_last", "name": "zero_padding2d_10", "trainable": true}, "class_name": "ZeroPadding2D"}, {"name": "stage2_unit1_conv2", "inbound_nodes": [[["zero_padding2d_10", 0, 0, {}]]], "config": {"name": "stage2_unit1_conv2", "activity_regularizer": null, "dilation_rate": [1, 1], "kernel_regularizer": null, "use_bias": false, "data_format": "channels_last", "trainable": true, "kernel_size": [3, 3], "filters": 128, "kernel_constraint": null, "bias_constraint": null, "strides": [1, 1], "kernel_initializer": {"config": {"distribution": "uniform", "seed": null, "scale": 2.0, "mode": "fan_in"}, "class_name": "VarianceScaling"}, "bias_initializer": {"config": {}, "class_name": "Zeros"}, "bias_regularizer": null, "padding": "valid", "activation": "linear"}, "class_name": "Conv2D"}, {"name": "stage2_unit1_sc", "inbound_nodes": [[["stage2_unit1_relu1", 0, 0, {}]]], "config": {"name": "stage2_unit1_sc", "activity_regularizer": null, "dilation_rate": [1, 1], "kernel_regularizer": null, "use_bias": false, "data_format": "channels_last", "trainable": true, "kernel_size": [1, 1], "filters": 128, "kernel_constraint": null, "bias_constraint": null, "strides": [2, 2], "kernel_initializer": {"config": {"distribution": "uniform", "seed": null, "scale": 2.0, "mode": "fan_in"}, "class_name": "VarianceScaling"}, "bias_initializer": {"config": {}, "class_name": "Zeros"}, "bias_regularizer": null, "padding": "valid", "activation": "linear"}, "class_name": "Conv2D"}, {"name": "add_4", "inbound_nodes": [[["stage2_unit1_conv2", 0, 0, {}], ["stage2_unit1_sc", 0, 0, {}]]], "config": {"name": "add_4", "trainable": true}, "class_name": "Add"}, {"name": "stage2_unit2_bn1", "inbound_nodes": [[["add_4", 0, 0, {}]]], "config": {"name": "stage2_unit2_bn1", "moving_mean_initializer": {"config": {}, "class_name": "Zeros"}, "center": true, "axis": 3, "trainable": true, "gamma_initializer": {"config": {}, "class_name": "Ones"}, "gamma_constraint": null, "gamma_regularizer": null, "scale": true, "moving_variance_initializer": {"config": {}, "class_name": "Ones"}, "epsilon": 2e-05, "beta_initializer": {"config": {}, "class_name": "Zeros"}, "beta_regularizer": null, "momentum": 0.99, "beta_constraint": null}, "class_name": "BatchNormalization"}, {"name": "stage2_unit2_relu1", "inbound_nodes": [[["stage2_unit2_bn1", 0, 0, {}]]], "config": {"name": "stage2_unit2_relu1", "trainable": true, "activation": "relu"}, "class_name": "Activation"}, {"name": "zero_padding2d_11", "inbound_nodes": [[["stage2_unit2_relu1", 0, 0, {}]]], "config": {"padding": [[1, 1], [1, 1]], "data_format": "channels_last", "name": "zero_padding2d_11", "trainable": true}, "class_name": "ZeroPadding2D"}, {"name": "stage2_unit2_conv1", "inbound_nodes": [[["zero_padding2d_11", 0, 0, {}]]], "config": {"name": "stage2_unit2_conv1", "activity_regularizer": null, "dilation_rate": [1, 1], "kernel_regularizer": null, "use_bias": false, "data_format": "channels_last", "trainable": true, "kernel_size": [3, 3], "filters": 128, "kernel_constraint": null, "bias_constraint": null, "strides": [1, 1], "kernel_initializer": {"config": {"distribution": "uniform", "seed": null, "scale": 2.0, "mode": "fan_in"}, "class_name": "VarianceScaling"}, "bias_initializer": {"config": {}, "class_name": "Zeros"}, "bias_regularizer": null, "padding": "valid", "activation": "linear"}, "class_name": "Conv2D"}, {"name": "stage2_unit2_bn2", "inbound_nodes": [[["stage2_unit2_conv1", 0, 0, {}]]], "config": {"name": "stage2_unit2_bn2", "moving_mean_initializer": {"config": {}, "class_name": "Zeros"}, "center": true, "axis": 3, "trainable": true, "gamma_initializer": {"config": {}, "class_name": "Ones"}, "gamma_constraint": null, "gamma_regularizer": null, "scale": true, "moving_variance_initializer": {"config": {}, "class_name": "Ones"}, "epsilon": 2e-05, "beta_initializer": {"config": {}, "class_name": "Zeros"}, "beta_regularizer": null, "momentum": 0.99, "beta_constraint": null}, "class_name": "BatchNormalization"}, {"name": "stage2_unit2_relu2", "inbound_nodes": [[["stage2_unit2_bn2", 0, 0, {}]]], "config": {"name": "stage2_unit2_relu2", "trainable": true, "activation": "relu"}, "class_name": "Activation"}, {"name": "zero_padding2d_12", "inbound_nodes": [[["stage2_unit2_relu2", 0, 0, {}]]], "config": {"padding": [[1, 1], [1, 1]], "data_format": "channels_last", "name": "zero_padding2d_12", "trainable": true}, "class_name": "ZeroPadding2D"}, {"name": "stage2_unit2_conv2", "inbound_nodes": [[["zero_padding2d_12", 0, 0, {}]]], "config": {"name": "stage2_unit2_conv2", "activity_regularizer": null, "dilation_rate": [1, 1], "kernel_regularizer": null, "use_bias": false, "data_format": "channels_last", "trainable": true, "kernel_size": [3, 3], "filters": 128, "kernel_constraint": null, "bias_constraint": null, "strides": [1, 1], "kernel_initializer": {"config": {"distribution": "uniform", "seed": null, "scale": 2.0, "mode": "fan_in"}, "class_name": "VarianceScaling"}, "bias_initializer": {"config": {}, "class_name": "Zeros"}, "bias_regularizer": null, "padding": "valid", "activation": "linear"}, "class_name": "Conv2D"}, {"name": "add_5", "inbound_nodes": [[["stage2_unit2_conv2", 0, 0, {}], ["add_4", 0, 0, {}]]], "config": {"name": "add_5", "trainable": true}, "class_name": "Add"}, {"name": "stage2_unit3_bn1", "inbound_nodes": [[["add_5", 0, 0, {}]]], "config": {"name": "stage2_unit3_bn1", "moving_mean_initializer": {"config": {}, "class_name": "Zeros"}, "center": true, "axis": 3, "trainable": true, "gamma_initializer": {"config": {}, "class_name": "Ones"}, "gamma_constraint": null, "gamma_regularizer": null, "scale": true, "moving_variance_initializer": {"config": {}, "class_name": "Ones"}, "epsilon": 2e-05, "beta_initializer": {"config": {}, "class_name": "Zeros"}, "beta_regularizer": null, "momentum": 0.99, "beta_constraint": null}, "class_name": "BatchNormalization"}, {"name": "stage2_unit3_relu1", "inbound_nodes": [[["stage2_unit3_bn1", 0, 0, {}]]], "config": {"name": "stage2_unit3_relu1", "trainable": true, "activation": "relu"}, "class_name": "Activation"}, {"name": "zero_padding2d_13", "inbound_nodes": [[["stage2_unit3_relu1", 0, 0, {}]]], "config": {"padding": [[1, 1], [1, 1]], "data_format": "channels_last", "name": "zero_padding2d_13", "trainable": true}, "class_name": "ZeroPadding2D"}, {"name": "stage2_unit3_conv1", "inbound_nodes": [[["zero_padding2d_13", 0, 0, {}]]], "config": {"name": "stage2_unit3_conv1", "activity_regularizer": null, "dilation_rate": [1, 1], "kernel_regularizer": null, "use_bias": false, "data_format": "channels_last", "trainable": true, "kernel_size": [3, 3], "filters": 128, "kernel_constraint": null, "bias_constraint": null, "strides": [1, 1], "kernel_initializer": {"config": {"distribution": "uniform", "seed": null, "scale": 2.0, "mode": "fan_in"}, "class_name": "VarianceScaling"}, "bias_initializer": {"config": {}, "class_name": "Zeros"}, "bias_regularizer": null, "padding": "valid", "activation": "linear"}, "class_name": "Conv2D"}, {"name": "stage2_unit3_bn2", "inbound_nodes": [[["stage2_unit3_conv1", 0, 0, {}]]], "config": {"name": "stage2_unit3_bn2", "moving_mean_initializer": {"config": {}, "class_name": "Zeros"}, "center": true, "axis": 3, "trainable": true, "gamma_initializer": {"config": {}, "class_name": "Ones"}, "gamma_constraint": null, "gamma_regularizer": null, "scale": true, "moving_variance_initializer": {"config": {}, "class_name": "Ones"}, "epsilon": 2e-05, "beta_initializer": {"config": {}, "class_name": "Zeros"}, "beta_regularizer": null, "momentum": 0.99, "beta_constraint": null}, "class_name": "BatchNormalization"}, {"name": "stage2_unit3_relu2", "inbound_nodes": [[["stage2_unit3_bn2", 0, 0, {}]]], "config": {"name": "stage2_unit3_relu2", "trainable": true, "activation": "relu"}, "class_name": "Activation"}, {"name": "zero_padding2d_14", "inbound_nodes": [[["stage2_unit3_relu2", 0, 0, {}]]], "config": {"padding": [[1, 1], [1, 1]], "data_format": "channels_last", "name": "zero_padding2d_14", "trainable": true}, "class_name": "ZeroPadding2D"}, {"name": "stage2_unit3_conv2", "inbound_nodes": [[["zero_padding2d_14", 0, 0, {}]]], "config": {"name": "stage2_unit3_conv2", "activity_regularizer": null, "dilation_rate": [1, 1], "kernel_regularizer": null, "use_bias": false, "data_format": "channels_last", "trainable": true, "kernel_size": [3, 3], "filters": 128, "kernel_constraint": null, "bias_constraint": null, "strides": [1, 1], "kernel_initializer": {"config": {"distribution": "uniform", "seed": null, "scale": 2.0, "mode": "fan_in"}, "class_name": "VarianceScaling"}, "bias_initializer": {"config": {}, "class_name": "Zeros"}, "bias_regularizer": null, "padding": "valid", "activation": "linear"}, "class_name": "Conv2D"}, {"name": "add_6", "inbound_nodes": [[["stage2_unit3_conv2", 0, 0, {}], ["add_5", 0, 0, {}]]], "config": {"name": "add_6", "trainable": true}, "class_name": "Add"}, {"name": "stage2_unit4_bn1", "inbound_nodes": [[["add_6", 0, 0, {}]]], "config": {"name": "stage2_unit4_bn1", "moving_mean_initializer": {"config": {}, "class_name": "Zeros"}, "center": true, "axis": 3, "trainable": true, "gamma_initializer": {"config": {}, "class_name": "Ones"}, "gamma_constraint": null, "gamma_regularizer": null, "scale": true, "moving_variance_initializer": {"config": {}, "class_name": "Ones"}, "epsilon": 2e-05, "beta_initializer": {"config": {}, "class_name": "Zeros"}, "beta_regularizer": null, "momentum": 0.99, "beta_constraint": null}, "class_name": "BatchNormalization"}, {"name": "stage2_unit4_relu1", "inbound_nodes": [[["stage2_unit4_bn1", 0, 0, {}]]], "config": {"name": "stage2_unit4_relu1", "trainable": true, "activation": "relu"}, "class_name": "Activation"}, {"name": "zero_padding2d_15", "inbound_nodes": [[["stage2_unit4_relu1", 0, 0, {}]]], "config": {"padding": [[1, 1], [1, 1]], "data_format": "channels_last", "name": "zero_padding2d_15", "trainable": true}, "class_name": "ZeroPadding2D"}, {"name": "stage2_unit4_conv1", "inbound_nodes": [[["zero_padding2d_15", 0, 0, {}]]], "config": {"name": "stage2_unit4_conv1", "activity_regularizer": null, "dilation_rate": [1, 1], "kernel_regularizer": null, "use_bias": false, "data_format": "channels_last", "trainable": true, "kernel_size": [3, 3], "filters": 128, "kernel_constraint": null, "bias_constraint": null, "strides": [1, 1], "kernel_initializer": {"config": {"distribution": "uniform", "seed": null, "scale": 2.0, "mode": "fan_in"}, "class_name": "VarianceScaling"}, "bias_initializer": {"config": {}, "class_name": "Zeros"}, "bias_regularizer": null, "padding": "valid", "activation": "linear"}, "class_name": "Conv2D"}, {"name": "stage2_unit4_bn2", "inbound_nodes": [[["stage2_unit4_conv1", 0, 0, {}]]], "config": {"name": "stage2_unit4_bn2", "moving_mean_initializer": {"config": {}, "class_name": "Zeros"}, "center": true, "axis": 3, "trainable": true, "gamma_initializer": {"config": {}, "class_name": "Ones"}, "gamma_constraint": null, "gamma_regularizer": null, "scale": true, "moving_variance_initializer": {"config": {}, "class_name": "Ones"}, "epsilon": 2e-05, "beta_initializer": {"config": {}, "class_name": "Zeros"}, "beta_regularizer": null, "momentum": 0.99, "beta_constraint": null}, "class_name": "BatchNormalization"}, {"name": "stage2_unit4_relu2", "inbound_nodes": [[["stage2_unit4_bn2", 0, 0, {}]]], "config": {"name": "stage2_unit4_relu2", "trainable": true, "activation": "relu"}, "class_name": "Activation"}, {"name": "zero_padding2d_16", "inbound_nodes": [[["stage2_unit4_relu2", 0, 0, {}]]], "config": {"padding": [[1, 1], [1, 1]], "data_format": "channels_last", "name": "zero_padding2d_16", "trainable": true}, "class_name": "ZeroPadding2D"}, {"name": "stage2_unit4_conv2", "inbound_nodes": [[["zero_padding2d_16", 0, 0, {}]]], "config": {"name": "stage2_unit4_conv2", "activity_regularizer": null, "dilation_rate": [1, 1], "kernel_regularizer": null, "use_bias": false, "data_format": "channels_last", "trainable": true, "kernel_size": [3, 3], "filters": 128, "kernel_constraint": null, "bias_constraint": null, "strides": [1, 1], "kernel_initializer": {"config": {"distribution": "uniform", "seed": null, "scale": 2.0, "mode": "fan_in"}, "class_name": "VarianceScaling"}, "bias_initializer": {"config": {}, "class_name": "Zeros"}, "bias_regularizer": null, "padding": "valid", "activation": "linear"}, "class_name": "Conv2D"}, {"name": "add_7", "inbound_nodes": [[["stage2_unit4_conv2", 0, 0, {}], ["add_6", 0, 0, {}]]], "config": {"name": "add_7", "trainable": true}, "class_name": "Add"}, {"name": "stage3_unit1_bn1", "inbound_nodes": [[["add_7", 0, 0, {}]]], "config": {"name": "stage3_unit1_bn1", "moving_mean_initializer": {"config": {}, "class_name": "Zeros"}, "center": true, "axis": 3, "trainable": true, "gamma_initializer": {"config": {}, "class_name": "Ones"}, "gamma_constraint": null, "gamma_regularizer": null, "scale": true, "moving_variance_initializer": {"config": {}, "class_name": "Ones"}, "epsilon": 2e-05, "beta_initializer": {"config": {}, "class_name": "Zeros"}, "beta_regularizer": null, "momentum": 0.99, "beta_constraint": null}, "class_name": "BatchNormalization"}, {"name": "stage3_unit1_relu1", "inbound_nodes": [[["stage3_unit1_bn1", 0, 0, {}]]], "config": {"name": "stage3_unit1_relu1", "trainable": true, "activation": "relu"}, "class_name": "Activation"}, {"name": "zero_padding2d_17", "inbound_nodes": [[["stage3_unit1_relu1", 0, 0, {}]]], "config": {"padding": [[1, 1], [1, 1]], "data_format": "channels_last", "name": "zero_padding2d_17", "trainable": true}, "class_name": "ZeroPadding2D"}, {"name": "stage3_unit1_conv1", "inbound_nodes": [[["zero_padding2d_17", 0, 0, {}]]], "config": {"name": "stage3_unit1_conv1", "activity_regularizer": null, "dilation_rate": [1, 1], "kernel_regularizer": null, "use_bias": false, "data_format": "channels_last", "trainable": true, "kernel_size": [3, 3], "filters": 256, "kernel_constraint": null, "bias_constraint": null, "strides": [2, 2], "kernel_initializer": {"config": {"distribution": "uniform", "seed": null, "scale": 2.0, "mode": "fan_in"}, "class_name": "VarianceScaling"}, "bias_initializer": {"config": {}, "class_name": "Zeros"}, "bias_regularizer": null, "padding": "valid", "activation": "linear"}, "class_name": "Conv2D"}, {"name": "stage3_unit1_bn2", "inbound_nodes": [[["stage3_unit1_conv1", 0, 0, {}]]], "config": {"name": "stage3_unit1_bn2", "moving_mean_initializer": {"config": {}, "class_name": "Zeros"}, "center": true, "axis": 3, "trainable": true, "gamma_initializer": {"config": {}, "class_name": "Ones"}, "gamma_constraint": null, "gamma_regularizer": null, "scale": true, "moving_variance_initializer": {"config": {}, "class_name": "Ones"}, "epsilon": 2e-05, "beta_initializer": {"config": {}, "class_name": "Zeros"}, "beta_regularizer": null, "momentum": 0.99, "beta_constraint": null}, "class_name": "BatchNormalization"}, {"name": "stage3_unit1_relu2", "inbound_nodes": [[["stage3_unit1_bn2", 0, 0, {}]]], "config": {"name": "stage3_unit1_relu2", "trainable": true, "activation": "relu"}, "class_name": "Activation"}, {"name": "zero_padding2d_18", "inbound_nodes": [[["stage3_unit1_relu2", 0, 0, {}]]], "config": {"padding": [[1, 1], [1, 1]], "data_format": "channels_last", "name": "zero_padding2d_18", "trainable": true}, "class_name": "ZeroPadding2D"}, {"name": "stage3_unit1_conv2", "inbound_nodes": [[["zero_padding2d_18", 0, 0, {}]]], "config": {"name": "stage3_unit1_conv2", "activity_regularizer": null, "dilation_rate": [1, 1], "kernel_regularizer": null, "use_bias": false, "data_format": "channels_last", "trainable": true, "kernel_size": [3, 3], "filters": 256, "kernel_constraint": null, "bias_constraint": null, "strides": [1, 1], "kernel_initializer": {"config": {"distribution": "uniform", "seed": null, "scale": 2.0, "mode": "fan_in"}, "class_name": "VarianceScaling"}, "bias_initializer": {"config": {}, "class_name": "Zeros"}, "bias_regularizer": null, "padding": "valid", "activation": "linear"}, "class_name": "Conv2D"}, {"name": "stage3_unit1_sc", "inbound_nodes": [[["stage3_unit1_relu1", 0, 0, {}]]], "config": {"name": "stage3_unit1_sc", "activity_regularizer": null, "dilation_rate": [1, 1], "kernel_regularizer": null, "use_bias": false, "data_format": "channels_last", "trainable": true, "kernel_size": [1, 1], "filters": 256, "kernel_constraint": null, "bias_constraint": null, "strides": [2, 2], "kernel_initializer": {"config": {"distribution": "uniform", "seed": null, "scale": 2.0, "mode": "fan_in"}, "class_name": "VarianceScaling"}, "bias_initializer": {"config": {}, "class_name": "Zeros"}, "bias_regularizer": null, "padding": "valid", "activation": "linear"}, "class_name": "Conv2D"}, {"name": "add_8", "inbound_nodes": [[["stage3_unit1_conv2", 0, 0, {}], ["stage3_unit1_sc", 0, 0, {}]]], "config": {"name": "add_8", "trainable": true}, "class_name": "Add"}, {"name": "stage3_unit2_bn1", "inbound_nodes": [[["add_8", 0, 0, {}]]], "config": {"name": "stage3_unit2_bn1", "moving_mean_initializer": {"config": {}, "class_name": "Zeros"}, "center": true, "axis": 3, "trainable": true, "gamma_initializer": {"config": {}, "class_name": "Ones"}, "gamma_constraint": null, "gamma_regularizer": null, "scale": true, "moving_variance_initializer": {"config": {}, "class_name": "Ones"}, "epsilon": 2e-05, "beta_initializer": {"config": {}, "class_name": "Zeros"}, "beta_regularizer": null, "momentum": 0.99, "beta_constraint": null}, "class_name": "BatchNormalization"}, {"name": "stage3_unit2_relu1", "inbound_nodes": [[["stage3_unit2_bn1", 0, 0, {}]]], "config": {"name": "stage3_unit2_relu1", "trainable": true, "activation": "relu"}, "class_name": "Activation"}, {"name": "zero_padding2d_19", "inbound_nodes": [[["stage3_unit2_relu1", 0, 0, {}]]], "config": {"padding": [[1, 1], [1, 1]], "data_format": "channels_last", "name": "zero_padding2d_19", "trainable": true}, "class_name": "ZeroPadding2D"}, {"name": "stage3_unit2_conv1", "inbound_nodes": [[["zero_padding2d_19", 0, 0, {}]]], "config": {"name": "stage3_unit2_conv1", "activity_regularizer": null, "dilation_rate": [1, 1], "kernel_regularizer": null, "use_bias": false, "data_format": "channels_last", "trainable": true, "kernel_size": [3, 3], "filters": 256, "kernel_constraint": null, "bias_constraint": null, "strides": [1, 1], "kernel_initializer": {"config": {"distribution": "uniform", "seed": null, "scale": 2.0, "mode": "fan_in"}, "class_name": "VarianceScaling"}, "bias_initializer": {"config": {}, "class_name": "Zeros"}, "bias_regularizer": null, "padding": "valid", "activation": "linear"}, "class_name": "Conv2D"}, {"name": "stage3_unit2_bn2", "inbound_nodes": [[["stage3_unit2_conv1", 0, 0, {}]]], "config": {"name": "stage3_unit2_bn2", "moving_mean_initializer": {"config": {}, "class_name": "Zeros"}, "center": true, "axis": 3, "trainable": true, "gamma_initializer": {"config": {}, "class_name": "Ones"}, "gamma_constraint": null, "gamma_regularizer": null, "scale": true, "moving_variance_initializer": {"config": {}, "class_name": "Ones"}, "epsilon": 2e-05, "beta_initializer": {"config": {}, "class_name": "Zeros"}, "beta_regularizer": null, "momentum": 0.99, "beta_constraint": null}, "class_name": "BatchNormalization"}, {"name": "stage3_unit2_relu2", "inbound_nodes": [[["stage3_unit2_bn2", 0, 0, {}]]], "config": {"name": "stage3_unit2_relu2", "trainable": true, "activation": "relu"}, "class_name": "Activation"}, {"name": "zero_padding2d_20", "inbound_nodes": [[["stage3_unit2_relu2", 0, 0, {}]]], "config": {"padding": [[1, 1], [1, 1]], "data_format": "channels_last", "name": "zero_padding2d_20", "trainable": true}, "class_name": "ZeroPadding2D"}, {"name": "stage3_unit2_conv2", "inbound_nodes": [[["zero_padding2d_20", 0, 0, {}]]], "config": {"name": "stage3_unit2_conv2", "activity_regularizer": null, "dilation_rate": [1, 1], "kernel_regularizer": null, "use_bias": false, "data_format": "channels_last", "trainable": true, "kernel_size": [3, 3], "filters": 256, "kernel_constraint": null, "bias_constraint": null, "strides": [1, 1], "kernel_initializer": {"config": {"distribution": "uniform", "seed": null, "scale": 2.0, "mode": "fan_in"}, "class_name": "VarianceScaling"}, "bias_initializer": {"config": {}, "class_name": "Zeros"}, "bias_regularizer": null, "padding": "valid", "activation": "linear"}, "class_name": "Conv2D"}, {"name": "add_9", "inbound_nodes": [[["stage3_unit2_conv2", 0, 0, {}], ["add_8", 0, 0, {}]]], "config": {"name": "add_9", "trainable": true}, "class_name": "Add"}, {"name": "stage3_unit3_bn1", "inbound_nodes": [[["add_9", 0, 0, {}]]], "config": {"name": "stage3_unit3_bn1", "moving_mean_initializer": {"config": {}, "class_name": "Zeros"}, "center": true, "axis": 3, "trainable": true, "gamma_initializer": {"config": {}, "class_name": "Ones"}, "gamma_constraint": null, "gamma_regularizer": null, "scale": true, "moving_variance_initializer": {"config": {}, "class_name": "Ones"}, "epsilon": 2e-05, "beta_initializer": {"config": {}, "class_name": "Zeros"}, "beta_regularizer": null, "momentum": 0.99, "beta_constraint": null}, "class_name": "BatchNormalization"}, {"name": "stage3_unit3_relu1", "inbound_nodes": [[["stage3_unit3_bn1", 0, 0, {}]]], "config": {"name": "stage3_unit3_relu1", "trainable": true, "activation": "relu"}, "class_name": "Activation"}, {"name": "zero_padding2d_21", "inbound_nodes": [[["stage3_unit3_relu1", 0, 0, {}]]], "config": {"padding": [[1, 1], [1, 1]], "data_format": "channels_last", "name": "zero_padding2d_21", "trainable": true}, "class_name": "ZeroPadding2D"}, {"name": "stage3_unit3_conv1", "inbound_nodes": [[["zero_padding2d_21", 0, 0, {}]]], "config": {"name": "stage3_unit3_conv1", "activity_regularizer": null, "dilation_rate": [1, 1], "kernel_regularizer": null, "use_bias": false, "data_format": "channels_last", "trainable": true, "kernel_size": [3, 3], "filters": 256, "kernel_constraint": null, "bias_constraint": null, "strides": [1, 1], "kernel_initializer": {"config": {"distribution": "uniform", "seed": null, "scale": 2.0, "mode": "fan_in"}, "class_name": "VarianceScaling"}, "bias_initializer": {"config": {}, "class_name": "Zeros"}, "bias_regularizer": null, "padding": "valid", "activation": "linear"}, "class_name": "Conv2D"}, {"name": "stage3_unit3_bn2", "inbound_nodes": [[["stage3_unit3_conv1", 0, 0, {}]]], "config": {"name": "stage3_unit3_bn2", "moving_mean_initializer": {"config": {}, "class_name": "Zeros"}, "center": true, "axis": 3, "trainable": true, "gamma_initializer": {"config": {}, "class_name": "Ones"}, "gamma_constraint": null, "gamma_regularizer": null, "scale": true, "moving_variance_initializer": {"config": {}, "class_name": "Ones"}, "epsilon": 2e-05, "beta_initializer": {"config": {}, "class_name": "Zeros"}, "beta_regularizer": null, "momentum": 0.99, "beta_constraint": null}, "class_name": "BatchNormalization"}, {"name": "stage3_unit3_relu2", "inbound_nodes": [[["stage3_unit3_bn2", 0, 0, {}]]], "config": {"name": "stage3_unit3_relu2", "trainable": true, "activation": "relu"}, "class_name": "Activation"}, {"name": "zero_padding2d_22", "inbound_nodes": [[["stage3_unit3_relu2", 0, 0, {}]]], "config": {"padding": [[1, 1], [1, 1]], "data_format": "channels_last", "name": "zero_padding2d_22", "trainable": true}, "class_name": "ZeroPadding2D"}, {"name": "stage3_unit3_conv2", "inbound_nodes": [[["zero_padding2d_22", 0, 0, {}]]], "config": {"name": "stage3_unit3_conv2", "activity_regularizer": null, "dilation_rate": [1, 1], "kernel_regularizer": null, "use_bias": false, "data_format": "channels_last", "trainable": true, "kernel_size": [3, 3], "filters": 256, "kernel_constraint": null, "bias_constraint": null, "strides": [1, 1], "kernel_initializer": {"config": {"distribution": "uniform", "seed": null, "scale": 2.0, "mode": "fan_in"}, "class_name": "VarianceScaling"}, "bias_initializer": {"config": {}, "class_name": "Zeros"}, "bias_regularizer": null, "padding": "valid", "activation": "linear"}, "class_name": "Conv2D"}, {"name": "add_10", "inbound_nodes": [[["stage3_unit3_conv2", 0, 0, {}], ["add_9", 0, 0, {}]]], "config": {"name": "add_10", "trainable": true}, "class_name": "Add"}, {"name": "stage3_unit4_bn1", "inbound_nodes": [[["add_10", 0, 0, {}]]], "config": {"name": "stage3_unit4_bn1", "moving_mean_initializer": {"config": {}, "class_name": "Zeros"}, "center": true, "axis": 3, "trainable": true, "gamma_initializer": {"config": {}, "class_name": "Ones"}, "gamma_constraint": null, "gamma_regularizer": null, "scale": true, "moving_variance_initializer": {"config": {}, "class_name": "Ones"}, "epsilon": 2e-05, "beta_initializer": {"config": {}, "class_name": "Zeros"}, "beta_regularizer": null, "momentum": 0.99, "beta_constraint": null}, "class_name": "BatchNormalization"}, {"name": "stage3_unit4_relu1", "inbound_nodes": [[["stage3_unit4_bn1", 0, 0, {}]]], "config": {"name": "stage3_unit4_relu1", "trainable": true, "activation": "relu"}, "class_name": "Activation"}, {"name": "zero_padding2d_23", "inbound_nodes": [[["stage3_unit4_relu1", 0, 0, {}]]], "config": {"padding": [[1, 1], [1, 1]], "data_format": "channels_last", "name": "zero_padding2d_23", "trainable": true}, "class_name": "ZeroPadding2D"}, {"name": "stage3_unit4_conv1", "inbound_nodes": [[["zero_padding2d_23", 0, 0, {}]]], "config": {"name": "stage3_unit4_conv1", "activity_regularizer": null, "dilation_rate": [1, 1], "kernel_regularizer": null, "use_bias": false, "data_format": "channels_last", "trainable": true, "kernel_size": [3, 3], "filters": 256, "kernel_constraint": null, "bias_constraint": null, "strides": [1, 1], "kernel_initializer": {"config": {"distribution": "uniform", "seed": null, "scale": 2.0, "mode": "fan_in"}, "class_name": "VarianceScaling"}, "bias_initializer": {"config": {}, "class_name": "Zeros"}, "bias_regularizer": null, "padding": "valid", "activation": "linear"}, "class_name": "Conv2D"}, {"name": "stage3_unit4_bn2", "inbound_nodes": [[["stage3_unit4_conv1", 0, 0, {}]]], "config": {"name": "stage3_unit4_bn2", "moving_mean_initializer": {"config": {}, "class_name": "Zeros"}, "center": true, "axis": 3, "trainable": true, "gamma_initializer": {"config": {}, "class_name": "Ones"}, "gamma_constraint": null, "gamma_regularizer": null, "scale": true, "moving_variance_initializer": {"config": {}, "class_name": "Ones"}, "epsilon": 2e-05, "beta_initializer": {"config": {}, "class_name": "Zeros"}, "beta_regularizer": null, "momentum": 0.99, "beta_constraint": null}, "class_name": "BatchNormalization"}, {"name": "stage3_unit4_relu2", "inbound_nodes": [[["stage3_unit4_bn2", 0, 0, {}]]], "config": {"name": "stage3_unit4_relu2", "trainable": true, "activation": "relu"}, "class_name": "Activation"}, {"name": "zero_padding2d_24", "inbound_nodes": [[["stage3_unit4_relu2", 0, 0, {}]]], "config": {"padding": [[1, 1], [1, 1]], "data_format": "channels_last", "name": "zero_padding2d_24", "trainable": true}, "class_name": "ZeroPadding2D"}, {"name": "stage3_unit4_conv2", "inbound_nodes": [[["zero_padding2d_24", 0, 0, {}]]], "config": {"name": "stage3_unit4_conv2", "activity_regularizer": null, "dilation_rate": [1, 1], "kernel_regularizer": null, "use_bias": false, "data_format": "channels_last", "trainable": true, "kernel_size": [3, 3], "filters": 256, "kernel_constraint": null, "bias_constraint": null, "strides": [1, 1], "kernel_initializer": {"config": {"distribution": "uniform", "seed": null, "scale": 2.0, "mode": "fan_in"}, "class_name": "VarianceScaling"}, "bias_initializer": {"config": {}, "class_name": "Zeros"}, "bias_regularizer": null, "padding": "valid", "activation": "linear"}, "class_name": "Conv2D"}, {"name": "add_11", "inbound_nodes": [[["stage3_unit4_conv2", 0, 0, {}], ["add_10", 0, 0, {}]]], "config": {"name": "add_11", "trainable": true}, "class_name": "Add"}, {"name": "stage3_unit5_bn1", "inbound_nodes": [[["add_11", 0, 0, {}]]], "config": {"name": "stage3_unit5_bn1", "moving_mean_initializer": {"config": {}, "class_name": "Zeros"}, "center": true, "axis": 3, "trainable": true, "gamma_initializer": {"config": {}, "class_name": "Ones"}, "gamma_constraint": null, "gamma_regularizer": null, "scale": true, "moving_variance_initializer": {"config": {}, "class_name": "Ones"}, "epsilon": 2e-05, "beta_initializer": {"config": {}, "class_name": "Zeros"}, "beta_regularizer": null, "momentum": 0.99, "beta_constraint": null}, "class_name": "BatchNormalization"}, {"name": "stage3_unit5_relu1", "inbound_nodes": [[["stage3_unit5_bn1", 0, 0, {}]]], "config": {"name": "stage3_unit5_relu1", "trainable": true, "activation": "relu"}, "class_name": "Activation"}, {"name": "zero_padding2d_25", "inbound_nodes": [[["stage3_unit5_relu1", 0, 0, {}]]], "config": {"padding": [[1, 1], [1, 1]], "data_format": "channels_last", "name": "zero_padding2d_25", "trainable": true}, "class_name": "ZeroPadding2D"}, {"name": "stage3_unit5_conv1", "inbound_nodes": [[["zero_padding2d_25", 0, 0, {}]]], "config": {"name": "stage3_unit5_conv1", "activity_regularizer": null, "dilation_rate": [1, 1], "kernel_regularizer": null, "use_bias": false, "data_format": "channels_last", "trainable": true, "kernel_size": [3, 3], "filters": 256, "kernel_constraint": null, "bias_constraint": null, "strides": [1, 1], "kernel_initializer": {"config": {"distribution": "uniform", "seed": null, "scale": 2.0, "mode": "fan_in"}, "class_name": "VarianceScaling"}, "bias_initializer": {"config": {}, "class_name": "Zeros"}, "bias_regularizer": null, "padding": "valid", "activation": "linear"}, "class_name": "Conv2D"}, {"name": "stage3_unit5_bn2", "inbound_nodes": [[["stage3_unit5_conv1", 0, 0, {}]]], "config": {"name": "stage3_unit5_bn2", "moving_mean_initializer": {"config": {}, "class_name": "Zeros"}, "center": true, "axis": 3, "trainable": true, "gamma_initializer": {"config": {}, "class_name": "Ones"}, "gamma_constraint": null, "gamma_regularizer": null, "scale": true, "moving_variance_initializer": {"config": {}, "class_name": "Ones"}, "epsilon": 2e-05, "beta_initializer": {"config": {}, "class_name": "Zeros"}, "beta_regularizer": null, "momentum": 0.99, "beta_constraint": null}, "class_name": "BatchNormalization"}, {"name": "stage3_unit5_relu2", "inbound_nodes": [[["stage3_unit5_bn2", 0, 0, {}]]], "config": {"name": "stage3_unit5_relu2", "trainable": true, "activation": "relu"}, "class_name": "Activation"}, {"name": "zero_padding2d_26", "inbound_nodes": [[["stage3_unit5_relu2", 0, 0, {}]]], "config": {"padding": [[1, 1], [1, 1]], "data_format": "channels_last", "name": "zero_padding2d_26", "trainable": true}, "class_name": "ZeroPadding2D"}, {"name": "stage3_unit5_conv2", "inbound_nodes": [[["zero_padding2d_26", 0, 0, {}]]], "config": {"name": "stage3_unit5_conv2", "activity_regularizer": null, "dilation_rate": [1, 1], "kernel_regularizer": null, "use_bias": false, "data_format": "channels_last", "trainable": true, "kernel_size": [3, 3], "filters": 256, "kernel_constraint": null, "bias_constraint": null, "strides": [1, 1], "kernel_initializer": {"config": {"distribution": "uniform", "seed": null, "scale": 2.0, "mode": "fan_in"}, "class_name": "VarianceScaling"}, "bias_initializer": {"config": {}, "class_name": "Zeros"}, "bias_regularizer": null, "padding": "valid", "activation": "linear"}, "class_name": "Conv2D"}, {"name": "add_12", "inbound_nodes": [[["stage3_unit5_conv2", 0, 0, {}], ["add_11", 0, 0, {}]]], "config": {"name": "add_12", "trainable": true}, "class_name": "Add"}, {"name": "stage3_unit6_bn1", "inbound_nodes": [[["add_12", 0, 0, {}]]], "config": {"name": "stage3_unit6_bn1", "moving_mean_initializer": {"config": {}, "class_name": "Zeros"}, "center": true, "axis": 3, "trainable": true, "gamma_initializer": {"config": {}, "class_name": "Ones"}, "gamma_constraint": null, "gamma_regularizer": null, "scale": true, "moving_variance_initializer": {"config": {}, "class_name": "Ones"}, "epsilon": 2e-05, "beta_initializer": {"config": {}, "class_name": "Zeros"}, "beta_regularizer": null, "momentum": 0.99, "beta_constraint": null}, "class_name": "BatchNormalization"}, {"name": "stage3_unit6_relu1", "inbound_nodes": [[["stage3_unit6_bn1", 0, 0, {}]]], "config": {"name": "stage3_unit6_relu1", "trainable": true, "activation": "relu"}, "class_name": "Activation"}, {"name": "zero_padding2d_27", "inbound_nodes": [[["stage3_unit6_relu1", 0, 0, {}]]], "config": {"padding": [[1, 1], [1, 1]], "data_format": "channels_last", "name": "zero_padding2d_27", "trainable": true}, "class_name": "ZeroPadding2D"}, {"name": "stage3_unit6_conv1", "inbound_nodes": [[["zero_padding2d_27", 0, 0, {}]]], "config": {"name": "stage3_unit6_conv1", "activity_regularizer": null, "dilation_rate": [1, 1], "kernel_regularizer": null, "use_bias": false, "data_format": "channels_last", "trainable": true, "kernel_size": [3, 3], "filters": 256, "kernel_constraint": null, "bias_constraint": null, "strides": [1, 1], "kernel_initializer": {"config": {"distribution": "uniform", "seed": null, "scale": 2.0, "mode": "fan_in"}, "class_name": "VarianceScaling"}, "bias_initializer": {"config": {}, "class_name": "Zeros"}, "bias_regularizer": null, "padding": "valid", "activation": "linear"}, "class_name": "Conv2D"}, {"name": "stage3_unit6_bn2", "inbound_nodes": [[["stage3_unit6_conv1", 0, 0, {}]]], "config": {"name": "stage3_unit6_bn2", "moving_mean_initializer": {"config": {}, "class_name": "Zeros"}, "center": true, "axis": 3, "trainable": true, "gamma_initializer": {"config": {}, "class_name": "Ones"}, "gamma_constraint": null, "gamma_regularizer": null, "scale": true, "moving_variance_initializer": {"config": {}, "class_name": "Ones"}, "epsilon": 2e-05, "beta_initializer": {"config": {}, "class_name": "Zeros"}, "beta_regularizer": null, "momentum": 0.99, "beta_constraint": null}, "class_name": "BatchNormalization"}, {"name": "stage3_unit6_relu2", "inbound_nodes": [[["stage3_unit6_bn2", 0, 0, {}]]], "config": {"name": "stage3_unit6_relu2", "trainable": true, "activation": "relu"}, "class_name": "Activation"}, {"name": "zero_padding2d_28", "inbound_nodes": [[["stage3_unit6_relu2", 0, 0, {}]]], "config": {"padding": [[1, 1], [1, 1]], "data_format": "channels_last", "name": "zero_padding2d_28", "trainable": true}, "class_name": "ZeroPadding2D"}, {"name": "stage3_unit6_conv2", "inbound_nodes": [[["zero_padding2d_28", 0, 0, {}]]], "config": {"name": "stage3_unit6_conv2", "activity_regularizer": null, "dilation_rate": [1, 1], "kernel_regularizer": null, "use_bias": false, "data_format": "channels_last", "trainable": true, "kernel_size": [3, 3], "filters": 256, "kernel_constraint": null, "bias_constraint": null, "strides": [1, 1], "kernel_initializer": {"config": {"distribution": "uniform", "seed": null, "scale": 2.0, "mode": "fan_in"}, "class_name": "VarianceScaling"}, "bias_initializer": {"config": {}, "class_name": "Zeros"}, "bias_regularizer": null, "padding": "valid", "activation": "linear"}, "class_name": "Conv2D"}, {"name": "add_13", "inbound_nodes": [[["stage3_unit6_conv2", 0, 0, {}], ["add_12", 0, 0, {}]]], "config": {"name": "add_13", "trainable": true}, "class_name": "Add"}, {"name": "stage4_unit1_bn1", "inbound_nodes": [[["add_13", 0, 0, {}]]], "config": {"name": "stage4_unit1_bn1", "moving_mean_initializer": {"config": {}, "class_name": "Zeros"}, "center": true, "axis": 3, "trainable": true, "gamma_initializer": {"config": {}, "class_name": "Ones"}, "gamma_constraint": null, "gamma_regularizer": null, "scale": true, "moving_variance_initializer": {"config": {}, "class_name": "Ones"}, "epsilon": 2e-05, "beta_initializer": {"config": {}, "class_name": "Zeros"}, "beta_regularizer": null, "momentum": 0.99, "beta_constraint": null}, "class_name": "BatchNormalization"}, {"name": "stage4_unit1_relu1", "inbound_nodes": [[["stage4_unit1_bn1", 0, 0, {}]]], "config": {"name": "stage4_unit1_relu1", "trainable": true, "activation": "relu"}, "class_name": "Activation"}, {"name": "zero_padding2d_29", "inbound_nodes": [[["stage4_unit1_relu1", 0, 0, {}]]], "config": {"padding": [[1, 1], [1, 1]], "data_format": "channels_last", "name": "zero_padding2d_29", "trainable": true}, "class_name": "ZeroPadding2D"}, {"name": "stage4_unit1_conv1", "inbound_nodes": [[["zero_padding2d_29", 0, 0, {}]]], "config": {"name": "stage4_unit1_conv1", "activity_regularizer": null, "dilation_rate": [1, 1], "kernel_regularizer": null, "use_bias": false, "data_format": "channels_last", "trainable": true, "kernel_size": [3, 3], "filters": 512, "kernel_constraint": null, "bias_constraint": null, "strides": [2, 2], "kernel_initializer": {"config": {"distribution": "uniform", "seed": null, "scale": 2.0, "mode": "fan_in"}, "class_name": "VarianceScaling"}, "bias_initializer": {"config": {}, "class_name": "Zeros"}, "bias_regularizer": null, "padding": "valid", "activation": "linear"}, "class_name": "Conv2D"}, {"name": "stage4_unit1_bn2", "inbound_nodes": [[["stage4_unit1_conv1", 0, 0, {}]]], "config": {"name": "stage4_unit1_bn2", "moving_mean_initializer": {"config": {}, "class_name": "Zeros"}, "center": true, "axis": 3, "trainable": true, "gamma_initializer": {"config": {}, "class_name": "Ones"}, "gamma_constraint": null, "gamma_regularizer": null, "scale": true, "moving_variance_initializer": {"config": {}, "class_name": "Ones"}, "epsilon": 2e-05, "beta_initializer": {"config": {}, "class_name": "Zeros"}, "beta_regularizer": null, "momentum": 0.99, "beta_constraint": null}, "class_name": "BatchNormalization"}, {"name": "stage4_unit1_relu2", "inbound_nodes": [[["stage4_unit1_bn2", 0, 0, {}]]], "config": {"name": "stage4_unit1_relu2", "trainable": true, "activation": "relu"}, "class_name": "Activation"}, {"name": "zero_padding2d_30", "inbound_nodes": [[["stage4_unit1_relu2", 0, 0, {}]]], "config": {"padding": [[1, 1], [1, 1]], "data_format": "channels_last", "name": "zero_padding2d_30", "trainable": true}, "class_name": "ZeroPadding2D"}, {"name": "stage4_unit1_conv2", "inbound_nodes": [[["zero_padding2d_30", 0, 0, {}]]], "config": {"name": "stage4_unit1_conv2", "activity_regularizer": null, "dilation_rate": [1, 1], "kernel_regularizer": null, "use_bias": false, "data_format": "channels_last", "trainable": true, "kernel_size": [3, 3], "filters": 512, "kernel_constraint": null, "bias_constraint": null, "strides": [1, 1], "kernel_initializer": {"config": {"distribution": "uniform", "seed": null, "scale": 2.0, "mode": "fan_in"}, "class_name": "VarianceScaling"}, "bias_initializer": {"config": {}, "class_name": "Zeros"}, "bias_regularizer": null, "padding": "valid", "activation": "linear"}, "class_name": "Conv2D"}, {"name": "stage4_unit1_sc", "inbound_nodes": [[["stage4_unit1_relu1", 0, 0, {}]]], "config": {"name": "stage4_unit1_sc", "activity_regularizer": null, "dilation_rate": [1, 1], "kernel_regularizer": null, "use_bias": false, "data_format": "channels_last", "trainable": true, "kernel_size": [1, 1], "filters": 512, "kernel_constraint": null, "bias_constraint": null, "strides": [2, 2], "kernel_initializer": {"config": {"distribution": "uniform", "seed": null, "scale": 2.0, "mode": "fan_in"}, "class_name": "VarianceScaling"}, "bias_initializer": {"config": {}, "class_name": "Zeros"}, "bias_regularizer": null, "padding": "valid", "activation": "linear"}, "class_name": "Conv2D"}, {"name": "add_14", "inbound_nodes": [[["stage4_unit1_conv2", 0, 0, {}], ["stage4_unit1_sc", 0, 0, {}]]], "config": {"name": "add_14", "trainable": true}, "class_name": "Add"}, {"name": "stage4_unit2_bn1", "inbound_nodes": [[["add_14", 0, 0, {}]]], "config": {"name": "stage4_unit2_bn1", "moving_mean_initializer": {"config": {}, "class_name": "Zeros"}, "center": true, "axis": 3, "trainable": true, "gamma_initializer": {"config": {}, "class_name": "Ones"}, "gamma_constraint": null, "gamma_regularizer": null, "scale": true, "moving_variance_initializer": {"config": {}, "class_name": "Ones"}, "epsilon": 2e-05, "beta_initializer": {"config": {}, "class_name": "Zeros"}, "beta_regularizer": null, "momentum": 0.99, "beta_constraint": null}, "class_name": "BatchNormalization"}, {"name": "stage4_unit2_relu1", "inbound_nodes": [[["stage4_unit2_bn1", 0, 0, {}]]], "config": {"name": "stage4_unit2_relu1", "trainable": true, "activation": "relu"}, "class_name": "Activation"}, {"name": "zero_padding2d_31", "inbound_nodes": [[["stage4_unit2_relu1", 0, 0, {}]]], "config": {"padding": [[1, 1], [1, 1]], "data_format": "channels_last", "name": "zero_padding2d_31", "trainable": true}, "class_name": "ZeroPadding2D"}, {"name": "stage4_unit2_conv1", "inbound_nodes": [[["zero_padding2d_31", 0, 0, {}]]], "config": {"name": "stage4_unit2_conv1", "activity_regularizer": null, "dilation_rate": [1, 1], "kernel_regularizer": null, "use_bias": false, "data_format": "channels_last", "trainable": true, "kernel_size": [3, 3], "filters": 512, "kernel_constraint": null, "bias_constraint": null, "strides": [1, 1], "kernel_initializer": {"config": {"distribution": "uniform", "seed": null, "scale": 2.0, "mode": "fan_in"}, "class_name": "VarianceScaling"}, "bias_initializer": {"config": {}, "class_name": "Zeros"}, "bias_regularizer": null, "padding": "valid", "activation": "linear"}, "class_name": "Conv2D"}, {"name": "stage4_unit2_bn2", "inbound_nodes": [[["stage4_unit2_conv1", 0, 0, {}]]], "config": {"name": "stage4_unit2_bn2", "moving_mean_initializer": {"config": {}, "class_name": "Zeros"}, "center": true, "axis": 3, "trainable": true, "gamma_initializer": {"config": {}, "class_name": "Ones"}, "gamma_constraint": null, "gamma_regularizer": null, "scale": true, "moving_variance_initializer": {"config": {}, "class_name": "Ones"}, "epsilon": 2e-05, "beta_initializer": {"config": {}, "class_name": "Zeros"}, "beta_regularizer": null, "momentum": 0.99, "beta_constraint": null}, "class_name": "BatchNormalization"}, {"name": "stage4_unit2_relu2", "inbound_nodes": [[["stage4_unit2_bn2", 0, 0, {}]]], "config": {"name": "stage4_unit2_relu2", "trainable": true, "activation": "relu"}, "class_name": "Activation"}, {"name": "zero_padding2d_32", "inbound_nodes": [[["stage4_unit2_relu2", 0, 0, {}]]], "config": {"padding": [[1, 1], [1, 1]], "data_format": "channels_last", "name": "zero_padding2d_32", "trainable": true}, "class_name": "ZeroPadding2D"}, {"name": "stage4_unit2_conv2", "inbound_nodes": [[["zero_padding2d_32", 0, 0, {}]]], "config": {"name": "stage4_unit2_conv2", "activity_regularizer": null, "dilation_rate": [1, 1], "kernel_regularizer": null, "use_bias": false, "data_format": "channels_last", "trainable": true, "kernel_size": [3, 3], "filters": 512, "kernel_constraint": null, "bias_constraint": null, "strides": [1, 1], "kernel_initializer": {"config": {"distribution": "uniform", "seed": null, "scale": 2.0, "mode": "fan_in"}, "class_name": "VarianceScaling"}, "bias_initializer": {"config": {}, "class_name": "Zeros"}, "bias_regularizer": null, "padding": "valid", "activation": "linear"}, "class_name": "Conv2D"}, {"name": "add_15", "inbound_nodes": [[["stage4_unit2_conv2", 0, 0, {}], ["add_14", 0, 0, {}]]], "config": {"name": "add_15", "trainable": true}, "class_name": "Add"}, {"name": "stage4_unit3_bn1", "inbound_nodes": [[["add_15", 0, 0, {}]]], "config": {"name": "stage4_unit3_bn1", "moving_mean_initializer": {"config": {}, "class_name": "Zeros"}, "center": true, "axis": 3, "trainable": true, "gamma_initializer": {"config": {}, "class_name": "Ones"}, "gamma_constraint": null, "gamma_regularizer": null, "scale": true, "moving_variance_initializer": {"config": {}, "class_name": "Ones"}, "epsilon": 2e-05, "beta_initializer": {"config": {}, "class_name": "Zeros"}, "beta_regularizer": null, "momentum": 0.99, "beta_constraint": null}, "class_name": "BatchNormalization"}, {"name": "stage4_unit3_relu1", "inbound_nodes": [[["stage4_unit3_bn1", 0, 0, {}]]], "config": {"name": "stage4_unit3_relu1", "trainable": true, "activation": "relu"}, "class_name": "Activation"}, {"name": "zero_padding2d_33", "inbound_nodes": [[["stage4_unit3_relu1", 0, 0, {}]]], "config": {"padding": [[1, 1], [1, 1]], "data_format": "channels_last", "name": "zero_padding2d_33", "trainable": true}, "class_name": "ZeroPadding2D"}, {"name": "stage4_unit3_conv1", "inbound_nodes": [[["zero_padding2d_33", 0, 0, {}]]], "config": {"name": "stage4_unit3_conv1", "activity_regularizer": null, "dilation_rate": [1, 1], "kernel_regularizer": null, "use_bias": false, "data_format": "channels_last", "trainable": true, "kernel_size": [3, 3], "filters": 512, "kernel_constraint": null, "bias_constraint": null, "strides": [1, 1], "kernel_initializer": {"config": {"distribution": "uniform", "seed": null, "scale": 2.0, "mode": "fan_in"}, "class_name": "VarianceScaling"}, "bias_initializer": {"config": {}, "class_name": "Zeros"}, "bias_regularizer": null, "padding": "valid", "activation": "linear"}, "class_name": "Conv2D"}, {"name": "stage4_unit3_bn2", "inbound_nodes": [[["stage4_unit3_conv1", 0, 0, {}]]], "config": {"name": "stage4_unit3_bn2", "moving_mean_initializer": {"config": {}, "class_name": "Zeros"}, "center": true, "axis": 3, "trainable": true, "gamma_initializer": {"config": {}, "class_name": "Ones"}, "gamma_constraint": null, "gamma_regularizer": null, "scale": true, "moving_variance_initializer": {"config": {}, "class_name": "Ones"}, "epsilon": 2e-05, "beta_initializer": {"config": {}, "class_name": "Zeros"}, "beta_regularizer": null, "momentum": 0.99, "beta_constraint": null}, "class_name": "BatchNormalization"}, {"name": "stage4_unit3_relu2", "inbound_nodes": [[["stage4_unit3_bn2", 0, 0, {}]]], "config": {"name": "stage4_unit3_relu2", "trainable": true, "activation": "relu"}, "class_name": "Activation"}, {"name": "zero_padding2d_34", "inbound_nodes": [[["stage4_unit3_relu2", 0, 0, {}]]], "config": {"padding": [[1, 1], [1, 1]], "data_format": "channels_last", "name": "zero_padding2d_34", "trainable": true}, "class_name": "ZeroPadding2D"}, {"name": "stage4_unit3_conv2", "inbound_nodes": [[["zero_padding2d_34", 0, 0, {}]]], "config": {"name": "stage4_unit3_conv2", "activity_regularizer": null, "dilation_rate": [1, 1], "kernel_regularizer": null, "use_bias": false, "data_format": "channels_last", "trainable": true, "kernel_size": [3, 3], "filters": 512, "kernel_constraint": null, "bias_constraint": null, "strides": [1, 1], "kernel_initializer": {"config": {"distribution": "uniform", "seed": null, "scale": 2.0, "mode": "fan_in"}, "class_name": "VarianceScaling"}, "bias_initializer": {"config": {}, "class_name": "Zeros"}, "bias_regularizer": null, "padding": "valid", "activation": "linear"}, "class_name": "Conv2D"}, {"name": "add_16", "inbound_nodes": [[["stage4_unit3_conv2", 0, 0, {}], ["add_15", 0, 0, {}]]], "config": {"name": "add_16", "trainable": true}, "class_name": "Add"}, {"name": "bn1", "inbound_nodes": [[["add_16", 0, 0, {}]]], "config": {"name": "bn1", "moving_mean_initializer": {"config": {}, "class_name": "Zeros"}, "center": true, "axis": 3, "trainable": true, "gamma_initializer": {"config": {}, "class_name": "Ones"}, "gamma_constraint": null, "gamma_regularizer": null, "scale": true, "moving_variance_initializer": {"config": {}, "class_name": "Ones"}, "epsilon": 2e-05, "beta_initializer": {"config": {}, "class_name": "Zeros"}, "beta_regularizer": null, "momentum": 0.99, "beta_constraint": null}, "class_name": "BatchNormalization"}, {"name": "relu1", "inbound_nodes": [[["bn1", 0, 0, {}]]], "config": {"name": "relu1", "trainable": true, "activation": "relu"}, "class_name": "Activation"}, {"name": "decoder_stage0_upsample", "inbound_nodes": [[["relu1", 0, 0, {}]]], "config": {"data_format": "channels_last", "name": "decoder_stage0_upsample", "trainable": true, "interpolation": "nearest", "size": [2, 2]}, "class_name": "UpSampling2D"}, {"name": "concatenate_1", "inbound_nodes": [[["decoder_stage0_upsample", 0, 0, {}], ["stage4_unit1_relu1", 0, 0, {}]]], "config": {"name": "concatenate_1", "trainable": true, "axis": -1}, "class_name": "Concatenate"}, {"name": "decoder_stage0_conv1", "inbound_nodes": [[["concatenate_1", 0, 0, {}]]], "config": {"name": "decoder_stage0_conv1", "activity_regularizer": null, "dilation_rate": [1, 1], "kernel_regularizer": null, "use_bias": false, "data_format": "channels_last", "trainable": true, "kernel_size": [3, 3], "filters": 256, "kernel_constraint": null, "bias_constraint": null, "strides": [1, 1], "kernel_initializer": {"config": {"distribution": "uniform", "seed": null, "scale": 1.0, "mode": "fan_avg"}, "class_name": "VarianceScaling"}, "bias_initializer": {"config": {}, "class_name": "Zeros"}, "bias_regularizer": null, "padding": "same", "activation": "linear"}, "class_name": "Conv2D"}, {"name": "decoder_stage0_bn1", "inbound_nodes": [[["decoder_stage0_conv1", 0, 0, {}]]], "config": {"name": "decoder_stage0_bn1", "moving_mean_initializer": {"config": {}, "class_name": "Zeros"}, "center": true, "axis": -1, "trainable": true, "gamma_initializer": {"config": {}, "class_name": "Ones"}, "gamma_constraint": null, "gamma_regularizer": null, "scale": true, "moving_variance_initializer": {"config": {}, "class_name": "Ones"}, "epsilon": 0.001, "beta_initializer": {"config": {}, "class_name": "Zeros"}, "beta_regularizer": null, "momentum": 0.99, "beta_constraint": null}, "class_name": "BatchNormalization"}, {"name": "decoder_stage0_relu1", "inbound_nodes": [[["decoder_stage0_bn1", 0, 0, {}]]], "config": {"name": "decoder_stage0_relu1", "trainable": true, "activation": "relu"}, "class_name": "Activation"}, {"name": "decoder_stage0_conv2", "inbound_nodes": [[["decoder_stage0_relu1", 0, 0, {}]]], "config": {"name": "decoder_stage0_conv2", "activity_regularizer": null, "dilation_rate": [1, 1], "kernel_regularizer": null, "use_bias": false, "data_format": "channels_last", "trainable": true, "kernel_size": [3, 3], "filters": 256, "kernel_constraint": null, "bias_constraint": null, "strides": [1, 1], "kernel_initializer": {"config": {"distribution": "uniform", "seed": null, "scale": 1.0, "mode": "fan_avg"}, "class_name": "VarianceScaling"}, "bias_initializer": {"config": {}, "class_name": "Zeros"}, "bias_regularizer": null, "padding": "same", "activation": "linear"}, "class_name": "Conv2D"}, {"name": "decoder_stage0_bn2", "inbound_nodes": [[["decoder_stage0_conv2", 0, 0, {}]]], "config": {"name": "decoder_stage0_bn2", "moving_mean_initializer": {"config": {}, "class_name": "Zeros"}, "center": true, "axis": -1, "trainable": true, "gamma_initializer": {"config": {}, "class_name": "Ones"}, "gamma_constraint": null, "gamma_regularizer": null, "scale": true, "moving_variance_initializer": {"config": {}, "class_name": "Ones"}, "epsilon": 0.001, "beta_initializer": {"config": {}, "class_name": "Zeros"}, "beta_regularizer": null, "momentum": 0.99, "beta_constraint": null}, "class_name": "BatchNormalization"}, {"name": "decoder_stage0_relu2", "inbound_nodes": [[["decoder_stage0_bn2", 0, 0, {}]]], "config": {"name": "decoder_stage0_relu2", "trainable": true, "activation": "relu"}, "class_name": "Activation"}, {"name": "decoder_stage1_upsample", "inbound_nodes": [[["decoder_stage0_relu2", 0, 0, {}]]], "config": {"data_format": "channels_last", "name": "decoder_stage1_upsample", "trainable": true, "interpolation": "nearest", "size": [2, 2]}, "class_name": "UpSampling2D"}, {"name": "concatenate_2", "inbound_nodes": [[["decoder_stage1_upsample", 0, 0, {}], ["stage3_unit1_relu1", 0, 0, {}]]], "config": {"name": "concatenate_2", "trainable": true, "axis": -1}, "class_name": "Concatenate"}, {"name": "decoder_stage1_conv1", "inbound_nodes": [[["concatenate_2", 0, 0, {}]]], "config": {"name": "decoder_stage1_conv1", "activity_regularizer": null, "dilation_rate": [1, 1], "kernel_regularizer": null, "use_bias": false, "data_format": "channels_last", "trainable": true, "kernel_size": [3, 3], "filters": 128, "kernel_constraint": null, "bias_constraint": null, "strides": [1, 1], "kernel_initializer": {"config": {"distribution": "uniform", "seed": null, "scale": 1.0, "mode": "fan_avg"}, "class_name": "VarianceScaling"}, "bias_initializer": {"config": {}, "class_name": "Zeros"}, "bias_regularizer": null, "padding": "same", "activation": "linear"}, "class_name": "Conv2D"}, {"name": "decoder_stage1_bn1", "inbound_nodes": [[["decoder_stage1_conv1", 0, 0, {}]]], "config": {"name": "decoder_stage1_bn1", "moving_mean_initializer": {"config": {}, "class_name": "Zeros"}, "center": true, "axis": -1, "trainable": true, "gamma_initializer": {"config": {}, "class_name": "Ones"}, "gamma_constraint": null, "gamma_regularizer": null, "scale": true, "moving_variance_initializer": {"config": {}, "class_name": "Ones"}, "epsilon": 0.001, "beta_initializer": {"config": {}, "class_name": "Zeros"}, "beta_regularizer": null, "momentum": 0.99, "beta_constraint": null}, "class_name": "BatchNormalization"}, {"name": "decoder_stage1_relu1", "inbound_nodes": [[["decoder_stage1_bn1", 0, 0, {}]]], "config": {"name": "decoder_stage1_relu1", "trainable": true, "activation": "relu"}, "class_name": "Activation"}, {"name": "decoder_stage1_conv2", "inbound_nodes": [[["decoder_stage1_relu1", 0, 0, {}]]], "config": {"name": "decoder_stage1_conv2", "activity_regularizer": null, "dilation_rate": [1, 1], "kernel_regularizer": null, "use_bias": false, "data_format": "channels_last", "trainable": true, "kernel_size": [3, 3], "filters": 128, "kernel_constraint": null, "bias_constraint": null, "strides": [1, 1], "kernel_initializer": {"config": {"distribution": "uniform", "seed": null, "scale": 1.0, "mode": "fan_avg"}, "class_name": "VarianceScaling"}, "bias_initializer": {"config": {}, "class_name": "Zeros"}, "bias_regularizer": null, "padding": "same", "activation": "linear"}, "class_name": "Conv2D"}, {"name": "decoder_stage1_bn2", "inbound_nodes": [[["decoder_stage1_conv2", 0, 0, {}]]], "config": {"name": "decoder_stage1_bn2", "moving_mean_initializer": {"config": {}, "class_name": "Zeros"}, "center": true, "axis": -1, "trainable": true, "gamma_initializer": {"config": {}, "class_name": "Ones"}, "gamma_constraint": null, "gamma_regularizer": null, "scale": true, "moving_variance_initializer": {"config": {}, "class_name": "Ones"}, "epsilon": 0.001, "beta_initializer": {"config": {}, "class_name": "Zeros"}, "beta_regularizer": null, "momentum": 0.99, "beta_constraint": null}, "class_name": "BatchNormalization"}, {"name": "decoder_stage1_relu2", "inbound_nodes": [[["decoder_stage1_bn2", 0, 0, {}]]], "config": {"name": "decoder_stage1_relu2", "trainable": true, "activation": "relu"}, "class_name": "Activation"}, {"name": "decoder_stage2_upsample", "inbound_nodes": [[["decoder_stage1_relu2", 0, 0, {}]]], "config": {"data_format": "channels_last", "name": "decoder_stage2_upsample", "trainable": true, "interpolation": "nearest", "size": [2, 2]}, "class_name": "UpSampling2D"}, {"name": "concatenate_3", "inbound_nodes": [[["decoder_stage2_upsample", 0, 0, {}], ["stage2_unit1_relu1", 0, 0, {}]]], "config": {"name": "concatenate_3", "trainable": true, "axis": -1}, "class_name": "Concatenate"}, {"name": "decoder_stage2_conv1", "inbound_nodes": [[["concatenate_3", 0, 0, {}]]], "config": {"name": "decoder_stage2_conv1", "activity_regularizer": null, "dilation_rate": [1, 1], "kernel_regularizer": null, "use_bias": false, "data_format": "channels_last", "trainable": true, "kernel_size": [3, 3], "filters": 64, "kernel_constraint": null, "bias_constraint": null, "strides": [1, 1], "kernel_initializer": {"config": {"distribution": "uniform", "seed": null, "scale": 1.0, "mode": "fan_avg"}, "class_name": "VarianceScaling"}, "bias_initializer": {"config": {}, "class_name": "Zeros"}, "bias_regularizer": null, "padding": "same", "activation": "linear"}, "class_name": "Conv2D"}, {"name": "decoder_stage2_bn1", "inbound_nodes": [[["decoder_stage2_conv1", 0, 0, {}]]], "config": {"name": "decoder_stage2_bn1", "moving_mean_initializer": {"config": {}, "class_name": "Zeros"}, "center": true, "axis": -1, "trainable": true, "gamma_initializer": {"config": {}, "class_name": "Ones"}, "gamma_constraint": null, "gamma_regularizer": null, "scale": true, "moving_variance_initializer": {"config": {}, "class_name": "Ones"}, "epsilon": 0.001, "beta_initializer": {"config": {}, "class_name": "Zeros"}, "beta_regularizer": null, "momentum": 0.99, "beta_constraint": null}, "class_name": "BatchNormalization"}, {"name": "decoder_stage2_relu1", "inbound_nodes": [[["decoder_stage2_bn1", 0, 0, {}]]], "config": {"name": "decoder_stage2_relu1", "trainable": true, "activation": "relu"}, "class_name": "Activation"}, {"name": "decoder_stage2_conv2", "inbound_nodes": [[["decoder_stage2_relu1", 0, 0, {}]]], "config": {"name": "decoder_stage2_conv2", "activity_regularizer": null, "dilation_rate": [1, 1], "kernel_regularizer": null, "use_bias": false, "data_format": "channels_last", "trainable": true, "kernel_size": [3, 3], "filters": 64, "kernel_constraint": null, "bias_constraint": null, "strides": [1, 1], "kernel_initializer": {"config": {"distribution": "uniform", "seed": null, "scale": 1.0, "mode": "fan_avg"}, "class_name": "VarianceScaling"}, "bias_initializer": {"config": {}, "class_name": "Zeros"}, "bias_regularizer": null, "padding": "same", "activation": "linear"}, "class_name": "Conv2D"}, {"name": "decoder_stage2_bn2", "inbound_nodes": [[["decoder_stage2_conv2", 0, 0, {}]]], "config": {"name": "decoder_stage2_bn2", "moving_mean_initializer": {"config": {}, "class_name": "Zeros"}, "center": true, "axis": -1, "trainable": true, "gamma_initializer": {"config": {}, "class_name": "Ones"}, "gamma_constraint": null, "gamma_regularizer": null, "scale": true, "moving_variance_initializer": {"config": {}, "class_name": "Ones"}, "epsilon": 0.001, "beta_initializer": {"config": {}, "class_name": "Zeros"}, "beta_regularizer": null, "momentum": 0.99, "beta_constraint": null}, "class_name": "BatchNormalization"}, {"name": "decoder_stage2_relu2", "inbound_nodes": [[["decoder_stage2_bn2", 0, 0, {}]]], "config": {"name": "decoder_stage2_relu2", "trainable": true, "activation": "relu"}, "class_name": "Activation"}, {"name": "decoder_stage3_upsample", "inbound_nodes": [[["decoder_stage2_relu2", 0, 0, {}]]], "config": {"data_format": "channels_last", "name": "decoder_stage3_upsample", "trainable": true, "interpolation": "nearest", "size": [2, 2]}, "class_name": "UpSampling2D"}, {"name": "concatenate_4", "inbound_nodes": [[["decoder_stage3_upsample", 0, 0, {}], ["relu0", 0, 0, {}]]], "config": {"name": "concatenate_4", "trainable": true, "axis": -1}, "class_name": "Concatenate"}, {"name": "decoder_stage3_conv1", "inbound_nodes": [[["concatenate_4", 0, 0, {}]]], "config": {"name": "decoder_stage3_conv1", "activity_regularizer": null, "dilation_rate": [1, 1], "kernel_regularizer": null, "use_bias": false, "data_format": "channels_last", "trainable": true, "kernel_size": [3, 3], "filters": 32, "kernel_constraint": null, "bias_constraint": null, "strides": [1, 1], "kernel_initializer": {"config": {"distribution": "uniform", "seed": null, "scale": 1.0, "mode": "fan_avg"}, "class_name": "VarianceScaling"}, "bias_initializer": {"config": {}, "class_name": "Zeros"}, "bias_regularizer": null, "padding": "same", "activation": "linear"}, "class_name": "Conv2D"}, {"name": "decoder_stage3_bn1", "inbound_nodes": [[["decoder_stage3_conv1", 0, 0, {}]]], "config": {"name": "decoder_stage3_bn1", "moving_mean_initializer": {"config": {}, "class_name": "Zeros"}, "center": true, "axis": -1, "trainable": true, "gamma_initializer": {"config": {}, "class_name": "Ones"}, "gamma_constraint": null, "gamma_regularizer": null, "scale": true, "moving_variance_initializer": {"config": {}, "class_name": "Ones"}, "epsilon": 0.001, "beta_initializer": {"config": {}, "class_name": "Zeros"}, "beta_regularizer": null, "momentum": 0.99, "beta_constraint": null}, "class_name": "BatchNormalization"}, {"name": "decoder_stage3_relu1", "inbound_nodes": [[["decoder_stage3_bn1", 0, 0, {}]]], "config": {"name": "decoder_stage3_relu1", "trainable": true, "activation": "relu"}, "class_name": "Activation"}, {"name": "decoder_stage3_conv2", "inbound_nodes": [[["decoder_stage3_relu1", 0, 0, {}]]], "config": {"name": "decoder_stage3_conv2", "activity_regularizer": null, "dilation_rate": [1, 1], "kernel_regularizer": null, "use_bias": false, "data_format": "channels_last", "trainable": true, "kernel_size": [3, 3], "filters": 32, "kernel_constraint": null, "bias_constraint": null, "strides": [1, 1], "kernel_initializer": {"config": {"distribution": "uniform", "seed": null, "scale": 1.0, "mode": "fan_avg"}, "class_name": "VarianceScaling"}, "bias_initializer": {"config": {}, "class_name": "Zeros"}, "bias_regularizer": null, "padding": "same", "activation": "linear"}, "class_name": "Conv2D"}, {"name": "decoder_stage3_bn2", "inbound_nodes": [[["decoder_stage3_conv2", 0, 0, {}]]], "config": {"name": "decoder_stage3_bn2", "moving_mean_initializer": {"config": {}, "class_name": "Zeros"}, "center": true, "axis": -1, "trainable": true, "gamma_initializer": {"config": {}, "class_name": "Ones"}, "gamma_constraint": null, "gamma_regularizer": null, "scale": true, "moving_variance_initializer": {"config": {}, "class_name": "Ones"}, "epsilon": 0.001, "beta_initializer": {"config": {}, "class_name": "Zeros"}, "beta_regularizer": null, "momentum": 0.99, "beta_constraint": null}, "class_name": "BatchNormalization"}, {"name": "decoder_stage3_relu2", "inbound_nodes": [[["decoder_stage3_bn2", 0, 0, {}]]], "config": {"name": "decoder_stage3_relu2", "trainable": true, "activation": "relu"}, "class_name": "Activation"}, {"name": "decoder_stage4_upsample", "inbound_nodes": [[["decoder_stage3_relu2", 0, 0, {}]]], "config": {"data_format": "channels_last", "name": "decoder_stage4_upsample", "trainable": true, "interpolation": "nearest", "size": [2, 2]}, "class_name": "UpSampling2D"}, {"name": "decoder_stage4_conv1", "inbound_nodes": [[["decoder_stage4_upsample", 0, 0, {}]]], "config": {"name": "decoder_stage4_conv1", "activity_regularizer": null, "dilation_rate": [1, 1], "kernel_regularizer": null, "use_bias": false, "data_format": "channels_last", "trainable": true, "kernel_size": [3, 3], "filters": 16, "kernel_constraint": null, "bias_constraint": null, "strides": [1, 1], "kernel_initializer": {"config": {"distribution": "uniform", "seed": null, "scale": 1.0, "mode": "fan_avg"}, "class_name": "VarianceScaling"}, "bias_initializer": {"config": {}, "class_name": "Zeros"}, "bias_regularizer": null, "padding": "same", "activation": "linear"}, "class_name": "Conv2D"}, {"name": "decoder_stage4_bn1", "inbound_nodes": [[["decoder_stage4_conv1", 0, 0, {}]]], "config": {"name": "decoder_stage4_bn1", "moving_mean_initializer": {"config": {}, "class_name": "Zeros"}, "center": true, "axis": -1, "trainable": true, "gamma_initializer": {"config": {}, "class_name": "Ones"}, "gamma_constraint": null, "gamma_regularizer": null, "scale": true, "moving_variance_initializer": {"config": {}, "class_name": "Ones"}, "epsilon": 0.001, "beta_initializer": {"config": {}, "class_name": "Zeros"}, "beta_regularizer": null, "momentum": 0.99, "beta_constraint": null}, "class_name": "BatchNormalization"}, {"name": "decoder_stage4_relu1", "inbound_nodes": [[["decoder_stage4_bn1", 0, 0, {}]]], "config": {"name": "decoder_stage4_relu1", "trainable": true, "activation": "relu"}, "class_name": "Activation"}, {"name": "decoder_stage4_conv2", "inbound_nodes": [[["decoder_stage4_relu1", 0, 0, {}]]], "config": {"name": "decoder_stage4_conv2", "activity_regularizer": null, "dilation_rate": [1, 1], "kernel_regularizer": null, "use_bias": false, "data_format": "channels_last", "trainable": true, "kernel_size": [3, 3], "filters": 16, "kernel_constraint": null, "bias_constraint": null, "strides": [1, 1], "kernel_initializer": {"config": {"distribution": "uniform", "seed": null, "scale": 1.0, "mode": "fan_avg"}, "class_name": "VarianceScaling"}, "bias_initializer": {"config": {}, "class_name": "Zeros"}, "bias_regularizer": null, "padding": "same", "activation": "linear"}, "class_name": "Conv2D"}, {"name": "decoder_stage4_bn2", "inbound_nodes": [[["decoder_stage4_conv2", 0, 0, {}]]], "config": {"name": "decoder_stage4_bn2", "moving_mean_initializer": {"config": {}, "class_name": "Zeros"}, "center": true, "axis": -1, "trainable": true, "gamma_initializer": {"config": {}, "class_name": "Ones"}, "gamma_constraint": null, "gamma_regularizer": null, "scale": true, "moving_variance_initializer": {"config": {}, "class_name": "Ones"}, "epsilon": 0.001, "beta_initializer": {"config": {}, "class_name": "Zeros"}, "beta_regularizer": null, "momentum": 0.99, "beta_constraint": null}, "class_name": "BatchNormalization"}, {"name": "decoder_stage4_relu2", "inbound_nodes": [[["decoder_stage4_bn2", 0, 0, {}]]], "config": {"name": "decoder_stage4_relu2", "trainable": true, "activation": "relu"}, "class_name": "Activation"}, {"name": "final_conv", "inbound_nodes": [[["decoder_stage4_relu2", 0, 0, {}]]], "config": {"name": "final_conv", "activity_regularizer": null, "dilation_rate": [1, 1], "kernel_regularizer": null, "use_bias": true, "data_format": "channels_last", "trainable": true, "kernel_size": [3, 3], "filters": 1, "kernel_constraint": null, "bias_constraint": null, "strides": [1, 1], "kernel_initializer": {"config": {"distribution": "uniform", "seed": null, "scale": 1.0, "mode": "fan_avg"}, "class_name": "VarianceScaling"}, "bias_initializer": {"config": {}, "class_name": "Zeros"}, "bias_regularizer": null, "padding": "same", "activation": "linear"}, "class_name": "Conv2D"}, {"name": "sigmoid", "inbound_nodes": [[["final_conv", 0, 0, {}]]], "config": {"name": "sigmoid", "trainable": true, "activation": "sigmoid"}, "class_name": "Activation"}], "output_layers": [["sigmoid", 0, 0]]}, "class_name": "Model"}